app/src/main/assets/clothessizeprediction.tflite (tflite, 21028 bytes, 6 tensors)

sequential_7/dense_21/BiasAdd/ReadVariableOp/resource f4 [64]
00000000: 58d2 90bb da5b 4dbb 64c8 1cbb 0000 0000
00000010: 0000 0000 0000 0000 6b02 62bb 1da4 abba
00000020: 83ca 7eba 0000 0000 2980 89bb 0000 0000
00000030: 7158 52bb 86b3 8dbc 51cd 88bb 0000 0000
00000040: 0000 0000 0000 0000 e16d 40bc 16b0 3fbc
00000050: 0000 0000 0000 0000 0933 6abb f8ae f0ba
00000060: 0000 0000 4bc4 8dbb f07e b0bb 5d11 c2ba
00000070: 0783 80bb 0000 0000 0000 0000 3eff 4dbb
00000080: 24ae deb9 691b bebb a521 5dbb 138a 11bb
00000090: afa7 26bb 0000 0000 0000 0000 0000 0000
000000a0: 3688 7dba 0000 0000 c24d ecba ee1d a2ba
000000b0: 0000 0000 0443 53bb 0000 0000 0000 0000
000000c0: d018 0ebb 0000 0000 0000 0000 1272 9dba
000000d0: c8c7 b3ba 466b 50bb 0000 0000 dccb e0ba
000000e0: 741d 9aba f2b8 43ba 0000 0000 0000 0000
000000f0: 0000 0000 0000 0000 d760 10bb 730f 82bb
-0.004419606 -0.0031335265 -0.0023923153 0.0 0.0 0.0 -0.0034486305 -0.0013095174
-0.00097195077 0.0 -0.004196186 0.0 -0.0032096172 -0.017297518 -0.0041748662 0.0
0.0 0.0 -0.011744947 -0.011699697 0.0 0.0 -0.0035735986 -0.0018362692
0.0 -0.0043263785 -0.005386226 -0.00148062 -0.0039218697 0.0 0.0 -0.0031432654
-0.00042472885 -0.0058016074 -0.0033741978 -0.0022207543 -0.0025429537 0.0 0.0 0.0
-0.0009671481 0.0 -0.0018028545 -0.0012368539 0.0 -0.003223599 0.0 0.0
-0.002168227 0.0 0.0 -0.0012012145 -0.0013716156 -0.0031802221 0.0 -0.0017150599
-0.0011758045 -0.00074662187 0.0 0.0 0.0 0.0 -0.0022030377 -0.003969127

sequential_7/dense_22/BiasAdd/ReadVariableOp/resource f4 [64]
00000000: f647 cbba d1b0 b3bc 4e8b e03b f19a c43c
00000010: 573a 863c 009e 4e3d 43ee 09bd fc81 9f3c
00000020: 0585 00bc b6dd 643c a99b 5c3c 2e99 68bc
00000030: 27f7 d03c deab 99bc 4bc8 a53c 9982 2a3d
00000040: 3c18 faba a428 123c cb2e 18bc dd4b 593c
00000050: 0838 85bc f71c 4a3c 18cb ee3b 1485 8f3c
00000060: 071a 3dba 2897 683c 3ec5 a73a 90c6 3bbc
00000070: 27e7 38b9 7d2b 033d 356d 2bbd 0c84 1b3a
00000080: 96f6 243c 9d0d e7bc 8efe 93bc ac94 073d
00000090: ebff 09bb 7d59 303c a3c8 043d 92f8 e53c
000000a0: 4465 d0bc 0ce6 0cbd 6f0c 34bc 2109 a73c
000000b0: 6944 8c3c bd8f dcbc e1df 0e3c 2c05 eabb
000000c0: 5413 123d 458e 0dbc 697d a5bb c03a a73c
000000d0: 0811 49bc 20a5 f33b 004e 20bc 8e6e 5b3c
000000e0: 5b39 efbc 2d52 173d c733 373c bf8a 453c
000000f0: 1b0d 37bd 97d1 04bd 3468 21bb fe12 e6bc
-0.0015509117 -0.021934899 0.006852544 0.023999663 0.01638524 0.05044365 -0.03367449 0.019471161
-0.007844214 0.013968876 0.013464847 -0.014196677 0.025508476 -0.01875871 0.020237109 0.041628454
-0.0019080709 0.008920822 -0.0092885 0.013262716 -0.01626207 0.012336007 0.0072873943 0.017519511
-0.0007213656 0.014196195 0.0012799872 -0.011460915 -0.00017633718 0.032023896 -0.041852195 0.0005932457
0.010068556 -0.028204734 -0.018065717 0.03310077 -0.002105708 0.010763523 0.032417905 0.02807263
-0.025438912 -0.034399077 -0.0109892925 0.020390095 0.017122464 -0.026924009 0.008720369 -0.00714173
0.035662964 -0.008639877 -0.0050503504 0.020413756 -0.012272127 0.007435456 -0.009784222 0.0133930575
-0.029202154 0.036943603 0.011181778 0.012057005 -0.044690233 -0.032426443 -0.002462876 -0.028085228

sequential_7/dense_23/BiasAdd/ReadVariableOp/resource f4 [6]
00000000: ff2c abbc 010d 213d bbe4 dc3c e7a3 52bb
00000010: b1df d53c 3ad7 8bbd
-0.02089548 0.039319042 0.026964536 -0.003214115 0.026107641 -0.068281606

sequential_7/dense_21/MatMul f4 [64, 3]
00000000: ae05 91be 957d 573d e282 00bf 53ad 88bd
00000010: 43e7 aa3a c187 debe b6ac e5be 7ee4 be3d
00000020: 8514 74be cf92 56be bceb 82be 40fe abbb
00000030: 834e 86be 6aad 0c3e dc77 91be bc45 3cbe
00000040: 6bc3 29be 0075 aebb d2f4 97be 54c2 49be
00000050: 00ea fbbe 8fdb 3e3e 6771 953d d2ff 4abe
00000060: 427e f3ba e6bb 06be 17cb f9bd b069 fd3c
00000070: 3fba 95be d0a5 37bd e8f7 afbc cac3 b9be
00000080: ca18 e8be 4090 b03b 15ba 7cbe e066 4f3c
00000090: 1c50 e9bb 7c5f cbbe 1963 83be 8cb1 77bf
000000a0: 74e7 36bf 62d2 2fc0 c3d4 71bd 51d4 27be
000000b0: 73f6 3bbf 0a15 15be 600a 46bd f9c0 97be
000000c0: bc60 a33d 9f1d 8ebe e6f8 80be dcc5 823e
000000d0: c098 b3bd d0be 67be 6e95 cabe 9879 e6be
000000e0: ac98 d7bf 88a8 f0be 8026 c1be 01d3 01c0
000000f0: 729d debd 204d e13d 2a92 83be 3c45 913d
00000100: 935a 26be 9816 2abe fa8a 8abe 55e5 d63d
00000110: 7f19 fdbe 532b 84be 9d94 89bc dd5c 35be
00000120: c02b e33c 8af1 0b3e 710f 84be bcd7 a4bc
00000130: 7a4c c03d 7b15 dfbe cf97 1abf 3035 a6be
00000140: 5dcb 24bf 630d f3bc 45ef 8cbe 5753 adbc
00000150: 834b e1bd 84b6 cabc a48e c0be 60a4 66bd
00000160: c8db 113d d2cc 90bd 504e 1dbd 3ab8 1ebe
00000170: d802 6cbd 441f 25be 88c3 69be 7224 e1be
00000180: 595a 22be 3872 4ebe 294c 593c eee8 09bf
00000190: be75 8cbe 9573 51bf a39e bbbe 0dbf a03d
000001a0: 6cae 88be e303 5d3d 4142 db3d 7b0b 99be
000001b0: cbce cf3c 989d 063e 2527 8abe 6c48 8e3e
000001c0: ee40 bbbd 82f9 86be b49d 2f3e ccb8 64be
000001d0: bb35 63be 90e3 c1bc d43b 893d 1e71 44be
000001e0: fec7 f93d c434 23be c497 febd 53e0 42be
000001f0: 4cc5 ac3d f972 8bbe 54c7 893d 51bd 2e3e
00000200: ab64 45be bae4 a1bd 1201 293e 2405 76be
00000210: 93b4 1fbe 6064 cb3d 2a64 83be babd 2fbd
00000220: 8cdc 47be 1443 abbe 45d6 94be d546 12be
00000230: 0020 a639 28ec 62bd f04d 6a3d feef 1fbe
00000240: cf25 81bd a27d 11bd a5ff 74be 3e12 9bbd
00000250: 7c4f d03d 8aeb 9fbd d0b3 57be bcd5 bbbd
00000260: 00eb 16bc 104e 36be f7b5 483d e1e4 1f3d
00000270: 8211 a03b 0e9d 82be 5dfc 55be 459c e2bc
00000280: e177 ef3d 0c12 a2be bc03 d33d ed42 2ebe
00000290: 38a2 ddbd da1a c9be 29a2 4dbd a640 e6bd
000002a0: 9eb8 8ebe 9d56 483e 7c72 57be 1610 9cbe
000002b0: ae8d 633e f85f 01be b422 113e a0b4 8cbc
000002c0: 5f59 77be bcd8 123e 861a 333e 99c5 36be
000002d0: 964b 143e 88c6 b9bd 3cd7 50be 7e52 72be
000002e0: 44a2 533e c892 12bd d606 1dbd b386 383e
000002f0: 8823 d1be 36c2 9bbe b470 cabe 6756 c4be
-0.28324646 0.05261 -0.5019971 -0.06673684 0.0013038892 -0.43462947 -0.4485833 0.09320925
-0.23835953 -0.2095444 -0.25570476 -0.005248815 -0.26231775 0.13738027 -0.28411758 -0.18385977
-0.16578452 -0.005324006 -0.2967897 -0.19703037 -0.49201965 0.18638442 0.072970204 -0.1982415
-0.0018577056 -0.13157615 -0.121969394 0.030934185 -0.29243657 -0.044835865 -0.021480516 -0.36282188
-0.45331413 0.0053882897 -0.2468036 0.012658805 -0.0071201455 -0.39721286 -0.25661543 -0.9675529
-0.7144692 -2.7472157 -0.059040796 -0.16389586 -0.73422927 -0.14558807 -0.048349738 -0.29639414
0.07977435 -0.27756974 -0.25189894 0.2554158 -0.08769369 -0.22631383 -0.3956713 -0.45014644
-1.6843467 -0.4700358 -0.37724686 -2.0285037 -0.10869874 0.110010386 -0.25697452 0.070932835
-0.16245489 -0.16610181 -0.27059156 0.1049296 -0.49433514 -0.25814304 -0.016794497 -0.17711206
0.027730823 0.13666359 -0.2579303 -0.020122401 0.09389587 -0.43571076 -0.6038789 -0.32462454
-0.6437281 -0.02966947 -0.27526298 -0.021157904 -0.11000731 -0.024745233 -0.37608826 -0.056309104
0.03560999 -0.070703164 -0.038404763 -0.15499964 -0.0576199 -0.16125208 -0.22828496 -0.43973118
-0.15854777 -0.20160758 0.013262787 -0.5387105 -0.2743358 -0.8181699 -0.36644468 0.0784894
-0.26695573 0.053958785 0.10705996 -0.2989157 0.025367161 0.13146055 -0.2698299 0.27789629
-0.09143244 -0.26362234 0.17150003 -0.2233612 -0.22188465 -0.02366808 0.067008644 -0.19183776
0.121963486 -0.15938097 -0.12431291 -0.19030885 0.08436069 -0.27236155 0.06727472 0.17064406
-0.19276683 -0.07904954 0.16504315 -0.24025398 -0.15596227 0.099312544 -0.25662357 -0.042905547
-0.19517726 -0.33449614 -0.29069725 -0.14284833 0.0003168583 -0.055400997 0.057203233 -0.15618894
-0.063060395 -0.035520203 -0.23925646 -0.07571839 0.101714104 -0.078085974 -0.21064687 -0.09171626
-0.009211302 -0.17803216 0.04900166 0.039036635 0.0048848996 -0.25510448 -0.2089705 -0.027662406
0.11692787 -0.31654394 0.10303447 -0.17017718 -0.108219564 -0.392783 -0.050203476 -0.112427995
-0.27875227 0.1956429 -0.21039766 -0.30481023 0.22222015 -0.12634265 0.14173394 -0.017175972
-0.24155186 0.1434049 0.17490587 -0.17848815 0.14481959 -0.0907107 -0.20394605 -0.23664281
0.20667368 -0.035784513 -0.038336597 0.18020134 -0.4084742 -0.3042161 -0.3953911 -0.3834717

sequential_7/dense_22/MatMul f4 [64, 64]
00000000: ff21 f9bc 6910 113d bef2 923c dabe 903d
00000010: 6054 55bd ec0d 0ebe c2ea dbbd 1481 bcbc
00000020: 2ce5 cdbd 8898 f93c a432 71be b08e 08bd
00000030: 1219 cbbc 9cc6 6f3c 62e4 b33d 7ca6 2d3d
00000040: 00c4 6539 66ba 8d3d 2ec2 853c 5cf8 383e
00000050: f89c 19be 80e6 97ba 7e6c 3b3e 6079 9b3d
00000060: 9eba 45be 110f 46bd 5d28 b6bd 836a 0cbe
00000070: c63d a3be 1f14 2bbe 8f70 3b3e 5cfa 5b3e
00000080: 88e0 c43d 1c79 dd3c e3b9 35bd 9d9e 14be
00000090: 91e6 fb3c 0e44 02be d079 193c 481b ae3c
000000a0: 517a 873d baf1 bd3d 88c2 b3be c1bb afbd
000000b0: 5aa0 b33d 802e 94bc 1841 b53c 481c 37bd
000000c0: aadf f83d 9676 2fbe 3b50 523e 257a 933b
000000d0: 521d b03d d8fe b5be cecc 26be fa9b 4ebe
000000e0: e5fe d13d 7862 c2bd 6161 39be 4262 e2bd
000000f0: 979d 04be ac99 7c3d 2ba9 ec3d b8cf 26bc
00000100: ea31 f7bb dc33 dd3d e5fe 35bd 44af b9bd
00000110: ea0c acbd ac04 653d 5978 1e3e d65b ba3d
00000120: cbb8 1b3c 02a2 15be 7447 08be 50ae e83c
00000130: 4f97 673e f53f 303e d26a 11be 9e6f 18be
00000140: 6e37 863d 0844 16bd baea a0bd c525 29be
00000150: ccaa 263d 7440 2f3d b83f 7b3d 1549 c3bd
00000160: d835 dfbd 37a5 893e 9b73 ee3d ba88 6c3e
00000170: a3ae eb3d a052 2bbe 1c46 79bd 2634 813d
00000180: 0c3e 9a3d 5f56 39be bde8 513e e6bf b93d
00000190: 9573 1e3e a146 083e b65d 31be e554 043e
000001a0: f3ef 1b3e a7b5 4dbe 5484 92bd cd75 153e
000001b0: a043 e0bc c806 d1bd 809c 42bc 2a67 19be
000001c0: 82e1 ccbd 8f90 573e 4a84 983d 388f 1ebe
000001d0: 6b5e 19be 845d 3e3e e460 1fbe d098 ff3d
000001e0: 09e8 033e 3774 233e 3b45 573e eeaf c83d
000001f0: 9c5e 393d 4226 50be 962a 2e3e 984f 89bb
00000200: 6707 823d 4bba 68be 81a4 e43d de1b ff3d
00000210: df18 3f3e ba70 c23d 878b da3d 3a61 b53c
00000220: 3781 e73d fb30 f5bd d11a bebd 2c63 2bbd
00000230: 7560 43be 3fca 653d 8568 953d af09 053e
00000240: 6084 cebc c3b9 403e 4e24 5a3e 5e70 473e
00000250: 8017 d13c d5de 1abe a88e cdbd 6842 213e
00000260: c06b bd3b 088b 07be 8fb5 b5bc 19bf d0bd
00000270: e25c 8dbe 15b5 423e 122d 8b3d 8e78 e73c
00000280: ec08 2b3e 4822 60bd 9314 87be 1ead 253e
00000290: 87cf 1c3e 47a0 25be 7ff5 0d3e 0855 30bd
000002a0: be19 2e3e 50ef 1a3c d28d 1fbd 86ef eb3d
000002b0: 7000 91bc 302e bd3d c422 52be e7bb d7bd
000002c0: 28a3 c7bd 62cc c33d b225 e53d 8675 8ebd
000002d0: 9cf1 653c 873a 4d3d ad45 113e 54f2 76be
000002e0: 0a73 db3c 00ae c23d 8360 143e b89d 06be
000002f0: 4cc0 49bd 07de cabd cc55 f7bd cdd1 11be
00000300: 6411 cdbd a354 fc3d 812a 4d3d c2fa 4bbe
00000310: b035 49be 3fed 51be 0971 c3bd 2b0d e8bd
00000320: fc71 21be 5614 c23d e645 e9bc d34b 2cbe
00000330: acc0 95be c37a 52be ca35 febd 3b19 203e
00000340: 4e39 ff3d f2da b9bd 1a79 5bbe 9f13 353e
00000350: 7ad1 1abe 76e8 cc3d 158b 8e3d 0073 153e
00000360: 81b2 133e 54b3 0cbe 9635 22be 7604 6bbd
00000370: 15c2 64be 1d1c 153e 878c 313e e826 10be
00000380: 4f53 4b3e bca6 d7bd e856 51be 21ce 53be
00000390: 269f b6bb 98fa a73c 6efa 01be 30d5 74bd
000003a0: aa03 133e 0e4e 14be 518c c6bd 2c9d f13d
000003b0: 8acb e73d 3fe8 ec3d d0a3 19be 4059 29bb
000003c0: 339f d3bd 98eb 63bd 10b6 9a3c a9c0 663d
000003d0: 812b 063e 6066 e93d 51dc 4c3e 11cc fabd
000003e0: bb8e f3bd 44e0 3b3d 98e0 d43c 28d2 e3bc
000003f0: 4300 413e 445a 77bd 46f1 6fbd 19d5 1c3e
-0.030411718 0.03541604 0.017938014 0.07067652 -0.05208242 -0.13872498 -0.10738136 -0.023010768
-0.10053477 0.03046824 -0.23554474 -0.033339202 -0.024792228 0.0146347545 0.08783795 0.0423951
0.00021912158 0.06920318 0.016327944 0.18063492 -0.15001285 -0.001158908 0.18303105 0.0759151
-0.1930947 -0.048354212 -0.088944174 -0.13712506 -0.31883067 -0.16706894 0.18304656 0.21482223
0.096131384 0.027035289 -0.04436673 -0.14513631 0.030749591 -0.12721273 0.009367421 0.021253243
0.06615127 0.09274621 -0.35109353 -0.08580733 0.08770819 -0.01808858 0.022125766 -0.044704705
0.121520355 -0.1713508 0.20538418 0.0045006447 0.085993424 -0.35545993 -0.16289064 -0.20176688
0.102536954 -0.09491438 -0.18103553 -0.110538974 -0.12950741 0.06166999 0.11555704 -0.01018136
-0.007543792 0.10800907 -0.04443254 -0.090666324 -0.08400901 0.05591266 0.15475596 0.090995476
0.009504507 -0.14612582 -0.13308507 0.028403431 0.22616313 0.17211898 -0.14200905 -0.14886329
0.06553541 -0.036685973 -0.078572705 -0.16518314 0.04069023 0.042786077 0.061340064 -0.09535424
-0.10898942 0.2688386 0.11643144 0.23099032 0.11507919 -0.16730738 -0.060857877 0.06308775
0.07531366 -0.18099354 0.20498939 0.09069805 0.15473779 0.13308193 -0.17320904 0.1292301
0.15228252 -0.20088826 -0.07154146 0.14595719 -0.027375996 -0.102063715 -0.011878133 -0.1498076
-0.1000395 0.21051238 0.07447107 -0.15484321 -0.14977424 0.18590361 -0.15564305 0.124803185
0.12881483 0.15962301 0.21022503 0.09799181 0.045256242 -0.20327094 0.17008433 -0.0041903965
0.06349068 -0.22727315 0.11164189 0.12456487 0.18661831 0.09494157 0.10671144 0.022141088
0.11303943 -0.11972233 -0.092824586 -0.041842625 -0.19079764 0.05610108 0.07295326 0.12991975
-0.025209606 0.18820862 0.21302912 0.19476458 0.025523901 -0.15124066 -0.10036975 0.15747988
0.005780667 -0.1323663 -0.0221813 -0.10192699 -0.27609926 0.1901439 0.06795706 0.028255727
0.16702622 -0.054720193 -0.26382884 0.1617932 0.1531354 -0.16174422 0.1386318 -0.043049842
0.17002007 0.009456471 -0.03895361 0.11520295 -0.017700404 0.09237325 -0.20521075 -0.105338864
-0.097479165 0.09560467 0.111888304 -0.069560096 0.014034655 0.050104644 0.14186735 -0.24115878
0.026788253 0.09505844 0.14489941 -0.13146102 -0.049255654 -0.099056296 -0.12076911 -0.14240189
-0.100130826 0.12320831 0.050089363 -0.19919875 -0.19649386 -0.20500658 -0.09543044 -0.113306366
-0.15766138 0.09476535 -0.028475713 -0.168258 -0.2924856 -0.20554642 -0.12412603 0.15634625
0.12462102 -0.09074964 -0.21432915 0.17683266 -0.15118971 0.10005276 0.069601215 0.1459465
0.14423563 -0.13740283 -0.15840754 -0.0573773 -0.22339661 0.14561506 0.17338763 -0.14077342
0.19855998 -0.10529849 -0.20443308 -0.206841 -0.005573171 0.020505235 -0.12693188 -0.059773624
0.14356866 -0.144829 -0.09694732 0.11797556 0.11318119 0.11567735 -0.15003896 -0.002584055
-0.10333099 -0.0556446 0.018885642 0.05633608 0.13102533 0.113964796 0.20005919 -0.12245954
-0.11892458 0.045868173 0.025986 -0.027810171 0.18847756 -0.06038882 -0.058579706 0.15315665

sequential_7/dense_23/MatMul f4 [6, 64]
00000000: c0d8 e53e 9b37 c7be 0a65 a93e a93e 033f
00000010: 3071 163f a9af 04bf 5df3 7ebf e8f8 313f
00000020: 085d 783f 7ec4 153f 7fdf 833f ecdd 2b3e
00000030: 2832 753d c5c4 993d fde8 843e 94a6 b4bd
00000040: b8e7 7f3e 6a5a 103e b89f 7cbe 2659 37be
00000050: be8c d53e ddb8 013f 049d 3dbc 7b5d 383f
00000060: 2ef2 123f 7932 88bf 0d71 833d ae0c 1bbf
00000070: c8ea 9d3e 2dab e33e c384 90be 3168 443f
00000080: e60e cb3d bb15 6cbe da6f 4d3e 3083 5bbe
00000090: aae8 843f 1d4e d23d 53bb 31bf f125 04bf
000000a0: 653c 823e 25c7 443f 36e0 18bf e784 97be
000000b0: a931 0fbf 103a ccbe fa46 e33e e4fc 823e
000000c0: 0cf1 45be 2f4d 083f cb4a 1ebd 29d2 193f
000000d0: 62b0 96be 5f5c 30bf 96e9 943d 7f4b 1f3e
000000e0: 33be e23e 7b7e 15bf 4427 e13d ad2a 04be
000000f0: 2d52 9c3e 93d6 bc3e 786a 343f ed18 35bf
00000100: 33e1 103f 0e8e 2cbe d922 0d3f 900a 573f
00000110: 2ab3 613f 77e1 3f3f 7009 46bf ded4 f93e
00000120: a2a4 3dbd 76bd 843e f545 a83e d980 0c3e
00000130: c735 633f 4f02 13bf f3a2 9ebd a48a 3e3f
00000140: d594 a33e 57f1 3e3f 585d 49bd 6f04 f83b
00000150: 4e33 75bd 1f7c 6f3e ae4f f4bd 2aa2 933e
00000160: 8921 113e f8ef b93e 2c4e 093d f940 b0be
00000170: 8288 ee3e be14 e03e 31a7 87bf f2de 093f
00000180: 6f5d db3e 4a30 bdbe 8f6d 09bf dcdd 8c3e
00000190: 65e7 913c b425 a2be cd20 143f d788 c03e
000001a0: e35d 18bf f09b 4bbf 2d6c 72be 6369 8e3e
000001b0: 38b8 fcbe fad5 36be 3db2 e6bd 37ac 9d3e
000001c0: d188 d63e 9dd7 da3e c3ba 923e 483d 2f3f
000001d0: a4e4 193e 0d6a a6be 83f6 093e 2412 1c3f
000001e0: 0846 0cbe 2bf4 ab3e 0252 21bd fbee 423e
000001f0: 966e 35bf bb35 d4be 39ed 40be 9faa fcbe
00000200: c3e4 62be 2d05 d33d a56d c8bc 11e0 95bd
00000210: badb bebe 7cdc 053e b5c7 093f 8b4d 09bf
00000220: aa0a b3be 9c7a 61be cdf0 07be 7e2e 13be
00000230: 831c 08bf 3d6e 963e 7708 973e 6e6d dabd
00000240: b4d3 853d 250f f2be 84db 443d e317 403d
00000250: 1bd0 633e 9540 abbd a780 193e 61a2 bcbe
00000260: 91df 1f3e 30f7 ce3e 5223 1f3e 320b 4f3e
00000270: 96f2 cfbb b2e8 55be a482 113f a1c0 cdbe
00000280: 66cd b9bc 7e5a 693e b773 b1bd fb7b 5abe
00000290: d095 93be 5810 413e f411 193e 9b2f 12be
000002a0: 9646 be3d 9c33 7cbe 4a8c 8c3d e339 1d3e
000002b0: 35d3 a73e 2398 0ebd 1df1 2c3e 72d7 b4be
000002c0: d86a 51be 2bdd 81be 6c75 c4be 9eb1 84bd
000002d0: 53f5 833d 48e3 493e 4e92 0d3e 309a f5be
000002e0: 86f8 84be dbbb 583c c987 1f3e b309 27be
000002f0: dbf5 a73d 440f f4bd 802d abbd 8243 8cbb
00000300: df8c 31be 908b b63d d9ea 043e 8658 17bf
00000310: 40d9 00be ad8b 963c 0362 253f 07f7 efbe
00000320: eff7 98be ba6a 38be 9898 f6bd 3891 99be
00000330: f83d febe 300d e73e 4eb2 6abd d7a8 fbbe
00000340: df50 e9bd a051 01bf 5dd2 fabd 6f9c 8fbe
00000350: fa95 1dbe afe3 13be d9ce 023e 61de bb3c
00000360: 3606 473c c8b5 ff3d 3f72 abbd d062 aa3c
00000370: 9cb8 cabe 6b91 b9be 050c 293f a9e5 d1be
00000380: b7b4 1abe f6dd c13b 39ea c7bd b1be 373e
00000390: 031e f0bc f790 b83e 558a 6f3e fb34 37be
000003a0: 6282 af3c a3bc 0c3e ecb0 213e e401 53be
000003b0: 7839 bd3d eee0 6ebe 6480 983e b31d 48be
000003c0: 26b5 fa3c e3e7 ebbe 960c 4ebe 481f 5fbc
000003d0: 15dc 63be d648 843e 7ab2 f7bd 2a41 21be
000003e0: 7c7f 5abe 12f6 30bd 4b2c 14be 709f 333d
000003f0: 15d3 f13e 404e 2a3d 6718 83be 8197 873d
0.4489193 -0.3890961 0.330849 0.51267487 0.5876646 -0.51830536 -0.9959009 0.69520426
0.97016954 0.5850295 1.030258 0.16783875 0.059862286 0.07508234 0.25959006 -0.08820835
0.24990737 0.1409699 -0.24670303 -0.17905101 0.4170894 0.50672704 -0.01157308 0.7201764
0.57400787 -1.0640403 0.06418047 -0.6056622 0.30843186 0.44466534 -0.2822629 0.76721483
0.09914951 -0.23055165 0.20062199 -0.21436763 1.0383503 0.10268805 -0.6942646 -0.51620394
0.25436702 0.7686637 -0.5971712 -0.29593584 -0.5593515 -0.39888048 0.44390088 0.25583565
-0.19330233 0.5324277 -0.038645547 0.60086304 -0.29431444 -0.6889095 0.072711155 0.15556143
0.44285735 -0.5839612 0.109938174 -0.12906905 0.30531445 0.36882457 0.7047496 -0.7074116
0.56593627 -0.16851065 0.551313 0.8400049 0.8816401 0.7495341 -0.7735815 0.48795217
-0.046299584 0.25925797 0.32865873 0.13721026 0.8875393 -0.574254 -0.07745924 0.744303
0.31949487 0.74587005 -0.049161285 0.007568888 -0.05986338 0.23387192 -0.1192926 0.2883466
0.14172949 0.36315894 0.033521816 -0.3442457 0.46588522 0.43765825 -1.0597898 0.5385581
0.42844722 -0.36950904 -0.536828 0.27513015 0.017810533 -0.3166939 0.5786255 0.376044
-0.5951826 -0.79534817 -0.23674078 0.2781478 -0.49359298 -0.17855063 -0.11264465 0.30795452
0.41901258 0.42742625 0.28658113 0.6845288 0.15028626 -0.32502785 0.13472943 0.6096518
-0.1369859 0.33584723 -0.03938485 0.19036476 -0.70871866 -0.41447243 -0.18840493 -0.49348924
-0.22157578 0.103037216 -0.024466345 -0.07318128 -0.37277013 0.1307239 0.53820354 -0.53633946
-0.34969074 -0.22019428 -0.13275452 -0.14373204 -0.53168505 0.2938098 0.29498646 -0.10665403
0.0653452 -0.4727718 0.04806091 0.04689778 0.22247355 -0.083619274 0.14990483 -0.36842635
0.15612628 0.40422964 0.15540817 0.20219114 -0.006346057 -0.20889547 0.56839967 -0.40186027
-0.02268095 0.22788426 -0.08664649 -0.21336357 -0.28825235 0.18853891 0.14948255 -0.14275973
0.09290807 -0.24629062 0.068626955 0.15354113 0.32778326 -0.034813058 0.16888852 -0.35320622
-0.20450914 -0.2536405 -0.38370836 -0.0647919 0.06443276 0.19715607 0.13825342 -0.47969198
-0.25970858 0.013228382 0.15579142 -0.16312294 0.0820119 -0.11916974 -0.08358288 -0.0042805085
-0.17338894 0.08913338 0.12980212 -0.5911945 -0.12582874 0.01837715 0.6460268 -0.46868154
-0.29876658 -0.18009463 -0.12040824 -0.29993606 -0.49656653 0.4512725 -0.05729895 -0.49152252
-0.11392378 -0.50515175 -0.12247155 -0.28049037 -0.15389243 -0.14442323 0.12774219 0.022933187
0.012147477 0.12485844 -0.083714 0.02079907 -0.3959397 -0.36243758 0.66033965 -0.4099553
-0.15108 0.0059163524 -0.09761471 0.17943837 -0.029311186 0.360481 0.23392613 -0.17891304
0.021424476 0.13743834 0.15790147 -0.2060619 0.09239477 -0.23327991 0.29785454 -0.1954258
0.030603956 -0.46075353 -0.20121989 -0.013618298 -0.22251923 0.2583682 -0.120945886 -0.15747514
-0.21337694 -0.04320342 -0.14470021 0.043853223 0.47231355 0.04157853 -0.25604555 0.06620694
